resources/classifier.onnx (onnx, 464985 bytes, 4 tensors)

dense/kernel:0 f4 [128, 5]
0.14417297 0.11058902 0.22710575 -0.22936383 0.02043279 -0.09511184 0.006803963 -0.049788862
0.24474671 0.18236113 -0.21598865 0.16081713 0.17853093 -0.14936025 -0.20511423 -0.11238825
0.099209175 0.061880685 -0.14593774 0.2161538 -0.11270363 -0.23729444 -0.042724032 0.16764127
-0.21525072 -0.08383017 -0.081875816 0.23776875 0.1793711 -0.06797678 -0.13980347 -0.10145584
0.07106246 0.14298101 0.09899451 -0.24465126 -0.15891959 -0.03812099 0.21107861 0.17362449
0.16912076 0.1365196 0.09137144 -0.15233171 0.14298174 0.14676361 0.049137585 -0.11463674
-0.16702227 0.009168922 0.2069988 -0.20949443 -0.044988487 -0.15543678 -0.094530046 -0.015024248
0.16568239 0.031135919 -0.14260785 0.10160105 0.11408693 -0.14642666 0.060813732 0.11831971
-0.18504348 0.1443505 -0.12364037 0.060288172 -0.062499456 -0.15140918 -0.21731691 0.018078469
-0.1231568 0.064013705 0.10696774 0.22284883 -0.105237335 -0.1394768 -0.0516985 -0.23831949
-0.17069708 0.06967816 -0.0021033464 -0.23115154 -0.15064804 0.14636092 0.025940156 0.055133294
-0.2453292 0.18566 0.19087622 0.14542581 0.057079326 -0.08305426 0.113037534 -0.021453679
0.21787961 0.12509407 0.15057836 0.0022362578 -0.22497052 0.22757883 0.12068051 -0.17912789
0.21341453 0.14611924 0.08076619 -0.13171972 -0.10036006 -0.07971043 -0.11707111 -0.051585548
0.17999068 0.04677431 0.23213305 -0.011240876 -0.0651708 -0.042679347 0.11736556 -0.07002341
0.19536708 0.007912581 -0.24230234 -0.10680701 0.19406259 -0.15152076 0.21676777 -0.036404412
0.04732655 -0.15701447 -0.24764408 0.22068031 -0.14328246 0.10604073 0.009793724 0.040603362
-0.13444513 -0.076430894 0.1833379 0.031995174 0.044791784 -0.14081472 0.25570178 -0.2400757
-0.12837416 0.16108698 0.17253353 0.12653595 -0.10726726 -0.12393263 0.20404863 0.013460738
0.13990621 -0.12504174 0.13397595 0.22173531 0.01663237 -0.10151387 0.042739358 0.2323508
-0.02022 -0.050998736 -0.086778276 -0.22640492 0.22204831 -0.19560641 0.05324346 0.19220981
-0.06735036 -0.051335733 -0.17622782 -0.20452149 0.079676144 -0.21246235 -0.05281686 -0.122835815
0.18966186 -0.19483551 -0.10868612 -0.16031812 0.01446947 -0.16332564 -0.033441443 -0.069829345
-0.1655342 -0.0649336 -0.12630603 -0.25690407 -0.0031792403 0.17989877 0.077982225 0.13765341
-0.17118073 -0.10590378 0.22706416 -0.031721517 -0.17314124 -0.27103668 0.1987728 0.007158456
-0.056316763 0.22159158 0.056985814 0.21069966 0.033604514 -0.21663491 0.10859262 0.23394746
0.1030808 -0.1881035 -0.0436779 0.11222486 -0.26959017 -0.2288581 0.074568905 -0.09878856
-0.22145191 0.03750694 0.065611646 -0.1631392 0.2343292 0.099242985 -0.22511493 -0.15354219
-0.25423518 -0.2273592 0.14354593 0.04031781 0.012980518 -0.018720934 -0.07220871 0.16048457
0.13100049 -0.060354043 0.23335516 0.06207989 0.16735254 0.032537058 -0.0049537555 -0.2173248
-0.030142132 -0.074836224 0.13687898 -0.055461474 0.084873535 -0.11687441 0.12969102 0.18720181
-0.017972037 0.21390471 -0.020755904 0.1880284 0.22757341 0.20746236 -0.16294204 0.028873015
00000000: 14a2 133e 7f7c e23d 698e 683e 5ade 6abe
00000010: ab62 a73c ffc9 c2bd c7f3 de3b 68ef 4bbd
00000020: e29e 7a3e e0bc 3a3e 212c 5dbe 3fad 243e
00000030: d0d0 363e e5f1 18be 7709 52be d02b e6bd
00000040: 2e2e cb3d 9a76 7d3d b470 15be 6c57 5d3e
00000050: 29d1 e6bd 50fd 72be 65ff 2ebd 27aa 2b3e
00000060: af6a 5cbe 27af abbd 82ae a7bd a779 733e
00000070: 0fad 373e 6937 8bbd a428 0fbe 14c8 cfbd
00000080: 3289 913d 9d69 123e a2bd ca3d dc85 7abe
00000090: d1bb 22be c124 1cbd fe24 583e 9eca 313e
000000a0: fe2d 2d3e cbcb 0b3e f320 bb3d d8fc 1bbe
000000b0: ce69 123e 3349 163e 7e44 493d abc6 eabd
000000c0: e307 2bbe 3f39 163c 7ef7 533e b585 56be
000000d0: d945 38bd d22a 1fbe f898 c1bd 4328 76bc
000000e0: a5a8 293e c110 ff3c cb07 12be 3614 d03d
000000f0: 69a6 e93d dff0 15be d217 793d 9b51 f23d
00000100: 0a7c 3dbe 9ed0 133e 2a37 fdbd bbf0 763d
00000110: 6eff 7fbd 020b 1bbe 5388 5ebe 4c19 943c
00000120: a239 fcbd 9e19 833d e711 db3d 7c32 643e
00000130: ac86 d7bd 02d3 0ebe cec1 53bd 060a 74be
00000140: 37cb 2ebe 6cb3 8e3d 4cd8 09bb fdb2 6cbe
00000150: 7b43 1abe a3df 153e 7380 d43c 73d3 613d
00000160: 9437 7bbe a81d 3e3e 0e75 433e 81ea 143e
00000170: 03cc 693d 5a18 aabd 3980 e73d a0bf afbc
00000180: d51b 5f3e a918 003e 3731 1a3e 2e8e 123b
00000190: ac5e 66be 6d0a 693e 5827 f73d 4d6d 37be
000001a0: 5789 5a3e 48a0 153e bf68 a53d 89e1 06be
000001b0: 9389 cdbd 393f a3bd fac2 efbd 5e4b 53bd
000001c0: 7a4f 383e 6b96 3f3d 49b4 6d3e a72b 38bc
000001d0: 4578 85bd 8ad0 2ebd 5b5d f03d 6f68 8fbd
000001e0: 4f0e 483e c5a3 013c 1b1e 78be a2bd dabd
000001f0: 58b8 463e 4228 1bbe 5ff8 5d3e cb1c 15bd
00000200: 7cd9 413d 67c8 20be 6996 7dbe 05fa 613e
00000210: a3b8 12be e22b d93d db75 203c b64f 263d
00000220: fcab 09be cd87 9cbd eebc 3b3e 5f0d 033d
00000230: 9777 373d bc31 10be 58eb 823e 68d6 75be
00000240: 8474 03be fcf3 243e a1ac 303e a492 013e
00000250: f0ae dbbd 64d0 fdbd 20f2 503e 6d8a 5c3c
00000260: 9343 0f3e f10a 00be fe30 093e 950e 633e
00000270: 9c40 883c 81e6 cfbd 770f 2f3d 5eed 6d3e
00000280: 6aa4 a5bc 0de4 50bd cfb8 b1bd b1d6 67be
00000290: a260 633e 0c4d 48be d015 5a3d a6d2 443e
000002a0: fcee 89bd 6b45 52bd 1175 34be 156e 51be
000002b0: 3f2d a33d bb8f 59be 7e56 58bd 5891 fbbd
000002c0: b836 423e f682 47be d496 debd 6f2a 24be
000002d0: 5b11 6d3c d63e 27be e5f9 08bd b002 8fbd
000002e0: cc81 29be e8fb 84bd 5e56 01be ee88 83be
000002f0: cd5a 50bb 6237 383e 25b5 9f3d 04f5 0c3e
00000300: 004a 2fbe 15e4 d8bd 8283 683e 6cee 01bd
00000310: f04b 31be 52c5 8abe 198b 4b3e 7b91 ea3b
00000320: 68ac 66bd e7e8 623e f569 693d a7c1 573e
00000330: e3a4 093d 8bd5 5dbe cf65 de3d ec8f 6f3e
00000340: 071c d33d 349e 40be 99e7 32bd 26d6 e53d
00000350: b907 8abe c759 6abe 95b7 983d a851 cabd
00000360: 4ac4 62be e1a0 193d 665f 863d f60d 27be
00000370: fef3 6f3e e83f cb3d 8784 66be 2a3a 1dbe
00000380: 1d2b 82be dad0 68be b4fd 123e 4a24 253d
00000390: 3dac 543c a55c 99bc 29e2 93bd 1156 243e
000003a0: fe24 063e cd35 77bd a8f4 6e3e 7c47 7e3d
000003b0: 775e 2b3e 9445 053d 1d53 a2bb 648a 5ebe
000003c0: a2ec f6bc bc43 99bd 012a 0c3e 922b 63bd
000003d0: 2dd2 ad3d da5b efbd b9cd 043e d5b1 3f3e
000003e0: 183a 93bc d609 5b3e 4908 aabc 848a 403e
000003f0: 0109 693e 0371 543e 47da 26be 1a87 ec3c

dense/bias:0 f4 [5]
0.011818194 -0.025529895 -0.008000834 0.02251235 -0.0014825461
00000000: 19a1 413c 1224 d1bc ee15 03bc d26b b83c
00000010: fe51 c2ba

conv1d/kernel:0 f4 [128, 300, 3]
0.029254489 -0.021384304 -0.040542196 0.046446 -0.03688267 -0.036172103 0.06454378 0.010252067
-0.018745108 0.02103943 0.018901262 0.0046275547 0.034028526 0.015985038 0.07701488 -0.046814054
-0.022637479 -0.059209365 -0.080236696 0.016201079 0.087296374 -0.08942914 0.03072154 0.012618072
0.053810395 -0.056569062 0.0107693635 -0.020310428 -0.03211188 -0.036955293 -0.03504808 0.013816085
-0.008857422 -0.06916568 -0.036816966 -0.042841475 -0.007265215 0.0100109 0.015667748 0.05823873
-0.020972023 0.009479858 -0.0077067465 -0.038668804 -0.020710018 -0.05050286 -0.003550619 0.029904995
-0.09475382 -0.03877536 -0.0065938686 -0.05830069 0.015170058 -0.06903925 -0.0061978814 0.015646974
0.0366306 -0.06517115 -0.03414047 0.043237414 -0.04060604 0.04646047 0.08339496 0.008602637
0.084811084 -0.014580839 0.00077157246 0.00076343067 0.026333028 -0.02919928 0.08942007 -0.051032156
0.033055384 0.025313882 -0.0056456705 -0.02955446 0.008235675 -0.017216858 -0.035892468 0.017806573
-0.039137088 0.036730684 -0.0355238 -0.053835135 0.040760696 0.047722436 0.014055189 -0.039131712
0.0389639 -0.05798782 0.049314734 -0.0069116075 0.07197692 0.042438343 -0.023921745 -0.065896876
0.04456251 -0.072611265 -0.045011226 0.08496462 0.021116268 -0.045022115 -0.0065131327 -0.054764077
-0.0071304413 -0.04475991 -0.0331932 0.012843759 0.04587048 -0.07439114 -0.07048823 0.05167545
-0.012557575 -0.050466236 -0.009316405 -0.00075874355 0.0032882595 0.06435508 -0.00034941302 -0.042102754
0.054468326 -0.064140506 0.024024414 -0.06946132 0.04483611 -0.04067078 -0.029580686 -0.05707514
0.0125608165 -0.025233753 0.006347833 -0.07148575 -0.0041009956 0.011118979 0.046566855 -0.007834196
-0.04505974 -0.04709222 -0.038368136 -0.021684557 0.022246107 0.016837377 -0.056436997 0.029352866
-0.048722867 0.039825752 0.081815265 0.0036054028 0.0741969 -0.031237513 -0.053715106 -0.021609671
-0.04104811 -0.0168914 -0.0020696996 -0.08202555 0.0035331356 0.04563031 -0.051561564 -0.00084612134
0.038265593 0.026658764 -0.022532584 -0.019778961 -0.022944808 -0.011235989 -0.066361666 -0.06400025
0.0350983 0.038303655 -0.05261698 -0.047334597 0.0077417763 -0.043224502 -0.0040718913 -0.05293376
-0.06997524 0.0188673 -0.023290094 0.059972104 0.083670214 -0.03204652 -0.07013096 0.088862985
-0.06127075 0.03823257 -0.059884723 0.06046536 -0.065625705 0.00525677 0.013658435 0.052755035
0.035472743 0.03231085 -0.051110882 -0.0040930514 0.023437513 0.030396221 -0.0060729836 0.050446544
-0.02886898 0.06534913 0.06628182 -0.03232691 -0.0058483076 -0.04630614 -0.06913114 -0.013864046
-0.038142476 -0.039813325 0.030153168 -0.032651518 -0.03433485 -0.021402849 0.029938763 -0.03645448
-0.047825906 0.039996028 -0.013134916 0.012572729 0.035876572 0.07871371 -0.07245655 0.045687273
-0.05881676 -0.018284371 -0.044305615 -0.004415317 -0.018856095 -0.009695206 -0.028132413 -0.020528764
0.031787448 -0.02892117 -0.015086924 0.011238835 -0.038621128 0.06421601 -0.057510134 0.076101474
0.032582406 0.04124111 -0.055448983 -0.061002698 0.028942414 -0.069365576 -0.0042535593 0.042914886
0.013806243 0.047169853 -0.050065663 0.04334442 0.05771822 -0.045260906 0.030960388 0.025070062
00000000: 1ca7 ef3c 232e afbc 930f 26bd 293e 3e3d
00000010: 4812 17bd 3329 14bd 882f 843d 49f8 273c
00000020: 578f 99bc e25a ac3c d2d6 9a3c bea2 973b
00000030: 7f61 0b3d 0ef3 823c fab9 9d3d 18c0 3fbd
00000040: 3c72 b9bc 8585 72bd 2353 a4bd 20b8 843c
00000050: 71c8 b23d a026 b7bd bdab fb3c 08bc 4e3c
00000060: 4a68 5c3d f6b4 67bd fc71 303c 0e62 a6bc
00000070: bf87 03bd 6f5e 17bd 938e 0fbd dc5c 623c
00000080: b81e 11bc bca6 8dbd 63cd 16bd 8b7a 2fbd
00000090: 0a11 eebb c204 243c a659 803c bc8b 6e3d
000000a0: 85cd abbc 6851 1b3c e088 fcbb 2e63 1ebd
000000b0: 0ea8 a9bc 16dc 4ebd 80b1 68bb 52fb f43c
000000c0: 4a0e c2bd e9d2 1ebd 6111 d8bb b4cc 6ebd
000000d0: d68b 783c 7364 8dbd 9917 cbbb 152e 803c
000000e0: f809 163d 7478 85bd e1d6 0bbd b719 313d
000000f0: 8552 26bd 554d 3e3d faca aa3d 13f2 0c3c
00000100: 6fb1 ad3d 79e4 6ebc 5a43 4a3a f720 483a
00000110: 5db8 d73c 5433 efbc df21 b73d 1807 51bd
00000120: 1565 073d 0f5f cf3c 51ff b8bb 321c f2bc
00000130: edee 063c 5e0a 8dbc fb03 13bd 17df 913c
00000140: 364e 20bd ea72 163d 6781 11bd 3b82 5cbd
00000150: b0f4 263d 9a78 433d bc47 663c 9348 20bd
00000160: 9c98 1f3d a384 6dbd 3ffe 493d c47a e2bb
00000170: a368 933d d4d3 2d3d 89f7 c3bc f1f4 86bd
00000180: 2e87 363d 37b5 94bd b15d 38bd ee01 ae3d
00000190: 06fc ac3c 1c69 38bd 1e6c d5bb 4c50 60bd
000001a0: 7aa6 e9bb 2b56 37bd 98f5 07bd a16e 523c
000001b0: afe2 3b3d 625a 98bd 225c 90bd a3a9 533d
000001c0: 49be 4dbc afb5 4ebd d6a3 18bc 6be6 46ba
000001d0: d77f 573b 99cc 833d 6c31 b7b9 f073 2cbd
000001e0: 2e1a 5f3d 195c 83bd d9ce c43c bd41 8ebd
000001f0: 12a6 373d 6796 26bd 3253 f2bc 9fc7 69bd
00000200: e2cb 4d3c 04b7 cebc 7c01 d03b 1f67 92bd
00000210: a561 86bb 612c 363c e3bc 3e3d 005b 00bc
00000220: 9090 38bd c6e3 40bd e827 1dbd d0a3 b1bc
00000230: 783d b63c 8aee 893c 7b2a 67bd 6c75 f03c
00000240: a191 47bd 5420 233d c38e a73d 9f48 6c3b
00000250: 8bf4 973d d0e5 ffbc 5f04 5cbd c406 b1bc
00000260: 1022 28bd d55f 8abc cca3 07bb 03fd a7bd
00000270: 2e8c 673b d9e6 3a3d 3832 53bd 3ece 5dba
00000280: 62bc 1c3d 7b63 da3c 4196 b8bc 7d07 a2bc
00000290: c0f6 bbbc 2717 38bc a0e8 87bd 9012 83bd
000002a0: 3cc3 0f3d 4be4 1c3d e784 57bd ece1 41bd
000002b0: baae fd3b 2d0c 31bd 806d 85bb 12d1 58bd
000002c0: 2e4f 8fbd 998f 9a3c deca bebc 4fa5 753d
000002d0: 4a5b ab3d 3643 03bd d2a0 8fbd ccfd b53d
000002e0: 0af7 7abd c199 1c3d af49 75bd 86aa 773d
000002f0: c566 86bd fc40 ac3b a1c7 5f3c aa15 583d
00000300: de4b 113d 6258 043d a559 51bd 011f 86bb
00000310: 0700 c03c 7f01 f93c e1ff c6bb 09a1 4e3d
00000320: a47e ecbc c4d5 853d c3be 873d 3969 04bd
00000330: 29a3 bfbb 82ab 3dbd a194 8dbd 0626 63bc
00000340: 493b 1cbd 4c13 23bd c703 f73c 99bd 05bd
00000350: b3a2 0cbd 0755 afbc 2342 f53c 4b51 15bd
00000360: 19e5 43bd e0d2 233d d533 57bc d9fd 4d3c
00000370: 50f3 123d a734 a13d 1a64 94bd 9422 3b3d
00000380: d8e9 70bd 1bc9 95bc ce79 35bd 5dae 90bb
00000390: 1978 9abc a4d8 1ebc f275 e6bc f02b a8bc
000003a0: 8e33 023d 17ec ecbc 252f 77bc 1723 383c
000003b0: 3031 1ebd af83 833d bf8f 6bbd 17db 9b3d
000003c0: 2175 053d 70ec 283d 791e 63bd f7dd 79bd
000003d0: a418 ed3c 8a0f 8ebd 7161 8bbb 85c7 2f3d
000003e0: 9533 623c 2d35 413d a711 4dbd eb89 313d
000003f0: f169 6c3d 8063 39bd a4a0 fd3c bb5f cd3c

conv1d/bias:0 f4 [128]
-0.020668635 0.010345883 -0.029409047 -0.029006327 0.033265132 0.01596476 0.013624064 0.012784341
-0.021113427 -0.013537223 0.012007626 -0.035945173 0.025466971 0.010786954 -0.006511704 0.012727709
-0.032762263 -0.018669754 -0.019080384 -0.01648505 -0.032247275 -0.009309417 0.0016788116 0.03419118
0.0017356535 -0.017838033 -0.013892822 0.03403589 -0.0072916066 -0.016591385 -0.005504433 0.013142918
-0.017863628 -0.029286612 -0.010344053 -0.022662481 0.021824054 0.01321252 -0.020225378 0.030449072
-0.010418135 -0.012190428 -0.025677254 0.02883348 -0.006731737 -0.022116207 -0.030195795 -0.012579883
-0.0008548688 -0.02627933 -0.007512262 0.022394273 -0.008311534 -0.023055965 -0.012747268 -0.004513266
0.027145585 -0.028577738 0.019815588 -0.030906668 0.01697588 -0.015980253 0.03244095 0.02705283
-0.030753022 0.03619282 -0.002701288 0.020803487 -0.017743519 0.0031725224 0.019455587 -0.011283219
-0.0077885664 -0.0050771316 -0.000796474 0.015632933 -0.015385815 -0.02521656 0.018234728 0.0044795377
-0.020174818 0.0039402996 -0.023780875 -0.025725065 -0.030880244 -0.023917833 -0.002251382 -0.018895425
0.035312507 0.0109685715 -0.032814745 -0.012769372 0.0108118635 0.026606662 0.014638554 -0.026093313
0.0017625282 0.033863094 -0.022811912 0.0286616 0.008898676 0.024827452 0.03110602 0.0065722894
-0.024521198 0.00013420772 -0.027864866 0.014136739 0.00039577985 0.019813811 0.004479401 0.0032809156
0.015369195 -0.03361972 0.027516633 0.0046856855 -0.02807221 0.021306908 0.0153753925 -0.0008794532
-0.0037778576 -0.028808277 -0.015340221 0.03392226 -0.011904084 -0.0055126906 -0.022505285 0.0031700155
00000000: 4551 a9bc c781 293c 3eeb f0bc ad9e edbc
00000010: 0541 083d 87c8 823c 7737 5f3c 6a75 513c
00000020: 11f6 acbc 3bcb 5dbc a2bb 443c 3f3b 13bd
00000030: 1ca0 d03c c4bb 303c 2260 d5bb e187 503c
00000040: b931 06bd 50f1 98bc 774e 9cbc a80b 87bc
00000050: b815 04bd 8686 18bc 920b dc3a 0d0c 0c3d
00000060: de7e e33a 1121 92bc b89e 63bc 3869 0b3d
00000070: 6eee eebb a8ea 87bc 885e b4bb 6555 573c
00000080: be56 92bc 7aea efbc 1a7a 29bc aba6 b9bc
00000090: 5cc8 b23c 5379 583c b1af a5bc 5570 f93c
000000a0: d3b0 2abc 5cba 47bc 1b59 d2bc 3134 ec3c
000000b0: e795 dcbb 0c2d b5bc 2c5d f7bc db1b 4ebc
000000c0: 4619 60ba c047 d7bc 6c29 f6bb 3274 b73c
000000d0: 1a2d 08bc dddf bcbc ebd9 50bc 05e4 93bb
000000e0: 6b60 de3c dc1b eabc 4d54 a23c fb2f fdbc
000000f0: 0011 8b3c 05e9 82bc cde0 043d e69d dd3c
00000100: c3ed fbbc ec3e 143d 1808 31bb 136c aa3c
00000110: db5a 91bc 18ea 4f3b 5361 9f3c 40dd 38bc
00000120: 3b37 ffbb 115e a6bb 77ca 50ba a310 803c
00000130: c914 7cbc f692 cebc ff60 953c 16c9 923b
00000140: a945 a5bc a11d 813b 1cd0 c2bc 5fbd d2bc
00000150: 91f8 fcbc 55ef c3bc ec8b 13bb 94ca 9abc
00000160: d9a3 103d 86b5 333c c168 06bd a136 51bc
00000170: 3e24 313c 37f6 d93c 8cd6 6f3c a5c1 d5bc
00000180: a204 e73a 07b4 0a3d 0ce0 babc bbcb ea3c
00000190: c1cb 113c f162 cb3c 0dd2 fe3c 5c5c d73b
000001a0: aee0 c8bc 1cba 0c39 dc44 e4bc c89d 673c
000001b0: ac80 cf39 9350 a23c f0c7 923b a104 573b
000001c0: 13cf 7b3c d5b4 09bd 906a e13c 618a 993b
000001d0: b1f7 e5bc d38b ae3c 12e9 7b3c 1b8b 66ba
000001e0: ef95 77bb 56ff ebbc 8d55 7bbc 11f2 0a3d
000001f0: 5909 43bc cda3 b4bb 015d b8bc 09c0 4f3b
