resources/classifier.onnx (onnx, 464985 bytes, 4 tensors)

dense/kernel:0 f4 [128, 5]
000000 5f 24 51 bd e7 cd 46 be 98 62 2e 3e 71 03 a0 3d
       -0.051060077 -0.19414483 0.17029798 0.078131564
000010 d2 88 b0 3d b2 af d9 bd 74 39 04 3e f2 d2 37 be
       0.086198464 -0.10629214 0.12912542 -0.17951563
000020 67 cd 00 bd 87 cd 12 be 8e 60 83 be ae 6c 3a 3e
       -0.031445887 -0.14336215 -0.25659603 0.1820552
000030 f1 58 00 3e de 3a a6 bd 22 5d 26 3e 6d 30 57 be
       0.12533928 -0.08116697 0.16246465 -0.21014567
000040 11 c4 1d 3d 65 df aa bd 6d 26 13 3e e2 cd 20 be
       0.03851706 -0.083433904 0.14370127 -0.15703538
000050 34 fc 04 3e 94 f9 5b 3d 57 c1 5a be 51 39 94 3b
       0.12986833 0.053704813 -0.21362816 0.004523434
000060 f9 7e 19 be 4d 9c f6 bd 02 d7 0c be 7b c2 41 bd
       -0.14989842 -0.12041531 -0.13753894 -0.04730461
000070 0e b8 64 be 0f 9f 2d 3d 39 56 a3 bd 8c 8f d7 bd
       -0.22335836 0.04238802 -0.0797543 -0.10525426
000080 ae 8f 36 be da 12 75 bc 99 72 cc 3d dd eb 54 be
       -0.17828247 -0.014958108 0.09982795 -0.207931
000090 3c df 28 bc 0b cd 7a 3e 0a 0c 19 3e 1a 93 27 bd
       -0.0103071295 0.2449228 0.14945999 -0.04091177
0000a0 d8 88 d9 bd 5d 87 4f be 63 f3 4b be be bc 30 3e
       -0.10621804 -0.2026648 -0.19917063 0.172595
0000b0 6b 3a 69 3e 49 19 49 be c4 ea 29 3e 61 52 70 be
       0.22776191 -0.19638552 0.16593462 -0.23468925
0000c0 ac dc b1 bc 73 5b 59 3e 23 98 ca bd 04 86 1c be
       -0.02171167 0.21226291 -0.09892299 -0.15285498
0000d0 4d 03 10 ba d1 2a 52 be a0 35 07 be a0 75 28 3e
       -0.0005493656 -0.20524146 -0.1320405 0.1645112
0000e0 ec b2 02 bd 56 c7 ff bd 8a 1a 53 be 21 df 04 3e
       -0.031908914 -0.12489192 -0.20615593 0.12975742
0000f0 e3 42 03 be 15 58 56 3e 35 71 45 3c ee 7d 33 bd
       -0.12818484 0.20932038 0.012050916 -0.043821268
000100 da ea a8 3d 6d 16 85 3e e5 7e fc 3d b7 79 ef bd
       0.082479194 0.25993672 0.12328891 -0.11693137
000110 59 e9 3a be 2e dc 9d bd 87 89 b7 bd fc a9 06 bd
       -0.18253078 -0.077080116 -0.08961778 -0.032876953
000120 c3 0a 5a 3e ad 17 50 be 15 4c 1b 3e 03 4f 88 bd
       0.21293168 -0.20321532 0.15165742 -0.06655695
000130 fc 6e d1 3d 6b d2 25 3e 6b 58 07 3d ca d2 47 3e
       0.10226247 0.1619355 0.033043306 0.19514003
000140 b6 94 0a be 8a 32 cb bd 64 4c a9 3d f1 f5 72 3e
       -0.13533291 -0.09921749 0.082665235 0.23726632
000150 9c c5 12 3d 41 12 9a bd c8 89 3f be b9 34 c5 bb
       0.035832986 -0.07523013 -0.18704903 -0.006018248
000160 0b 95 c4 3d 89 02 31 be 90 25 64 bd 6d 56 68 3e
       0.0959874 -0.17286123 -0.055699885 0.22689219
000170 74 54 fb bc ee 23 91 bd 2c a1 62 be 70 a2 42 3e
       -0.030679919 -0.07086931 -0.22131795 0.19007277
000180 4d 26 30 be 26 58 54 3d 0b 58 47 3e 48 d3 3c 3e
       -0.1720211 0.051841877 0.1946718 0.18439972
000190 35 60 80 3e 9e 92 aa 3d 72 56 06 3e 1d dd 47 3d
       0.250734 0.08328746 0.13118914 0.048794854
0001a0 05 78 71 be dd 1d 93 3d d1 b6 3b 3e 9d 39 56 3e
       -0.2358094 0.0718343 0.18331458 0.20920415
0001b0 b7 d1 dc 3c 86 ee 51 3d 42 17 52 3e 46 70 04 3d
       0.026955469 0.051252864 0.20516685 0.032333635
0001c0 ef 03 c4 3d 5f ff 79 be 09 0b 32 3e 27 e0 8c bd
       0.09571063 -0.24413823 0.17387022 -0.06878691
0001d0 89 8f 3c be b7 90 3e 3d c0 3f fb 3c 86 d2 31 be
       -0.1841413 0.04652473 0.030670047 -0.17365465
0001e0 81 ca 4c be 8d f6 fa bd cf 5c ad 3d 73 c4 88 3e
       -0.19999124 -0.12254057 0.084649675 0.2671238
0001f0 48 b7 2f 3e a0 70 73 3d e7 d5 7b be b8 8a 50 be
       0.1715976 0.05943358 -0.24593316 -0.20365417
000200 b9 34 28 3e 67 1f 72 3d 00 bc 82 be 29 19 b1 bd
       0.16426362 0.05911198 -0.25534058 -0.08647377
000210 e4 2a 3c be f8 d6 c4 bd 4a 7d 26 be 56 3a d0 bd
       -0.18375736 -0.096113145 -0.16258731 -0.10167377
000220 0b 54 24 3c eb 36 da bd 4f 79 45 be 67 93 93 3d
       0.010029803 -0.10655006 -0.19284557 0.07205849
000230 e9 3c 78 be 7f fe 19 3e 19 a5 0d 3e 71 76 63 be
       -0.24241985 0.15038489 0.13832511 -0.2221315
000240 3e 9e 66 3e db 7c 0c 3e 1a a8 67 be ed c8 a6 3c
       0.22521302 0.13719504 -0.2262272 0.02035948
000250 2e 47 55 be 16 a4 76 3c f1 65 96 3d 8f 30 3a be
       -0.20827934 0.01505377 0.073436625 -0.18182586
000260 b8 19 e6 3d fe b7 4e bd 4e bf 96 bd fc a7 85 be
       0.11235374 -0.050468437 -0.07360707 -0.26104724
000270 dd 9a 2d be f9 1e 84 3d 3b 32 5a be 14 66 eb bc
       -0.16953607 0.0645122 -0.21308224 -0.028735198
000280 4a 55 59 3d 9b bf 74 bc 7d 03 89 bd c2 93 6d be
       0.053059854 -0.01493826 -0.066901185 -0.23200896
000290 c9 31 fe bd 37 9c 18 3e fb 77 32 bc c7 cb dc 3d
       -0.124118395 0.14903341 -0.010892863 0.10781055
0002a0 39 5f 38 be 44 54 2c 3e fa 13 d2 3d 8c 36 37 3e
       -0.18005075 0.1682902 0.102577165 0.17891902
0002b0 46 63 ad bd e9 c5 36 3d af d9 3b be 14 44 21 3e
       -0.084662005 0.044622336 -0.18344758 0.15748626
0002c0 97 92 3d 3e 7d 02 9a 3b bd 93 04 be 3e 3d 89 be
       0.18512951 0.0047000037 -0.12946983 -0.26804537
0002d0 5f 11 f4 3d 14 64 66 3e dd 23 24 be d4 6d be bd
       0.11917376 0.22499114 -0.16029306 -0.09298292
0002e0 42 c7 1e be 3e 20 fb bd dd 7f 07 3e d5 7f 21 3e
       -0.15505698 -0.12262009 0.1323237 0.1577142
0002f0 50 3c 10 be 54 3a 0b 3d 28 65 0c be a7 bd 36 be
       -0.14085507 0.033991173 -0.13710463 -0.17845784
000300 80 15 75 3e d8 79 72 bb 99 59 18 bd 82 a1 6a 3e
       0.23933983 -0.0036998894 -0.037194822 0.22913173
000310 3a 66 43 be a1 7c 49 3d 41 38 0a 3e f4 ff 7a bc
       -0.19081965 0.04919112 0.13498022 -0.015319813
000320 e0 74 3e be 8b 87 17 be db a8 0b be 42 bc cc bd
       -0.18599272 -0.147978 -0.13638632 -0.09996845
000330 6e 91 0b 3e 7b bd c3 3d 25 55 4a be 9e 6b 22 be
       0.13629696 0.09557625 -0.19759043 -0.15861365
000340 9d 1b 9d bd ba 23 48 3e 89 25 ca bd a0 c1 13 be
       -0.076712824 0.19544879 -0.098704405 -0.14429331
000350 63 f7 17 3e f8 e7 3f 3e ca 44 1a 3d 51 21 ca bc
       0.14840464 0.18740833 0.03766326 -0.02467409
000360 65 42 42 3e a8 76 6a 3e 45 5e 02 bc ba e3 8a bd
       0.1897064 0.22896826 -0.007957046 -0.06781717
000370 1e 7e 85 be bb d4 06 3e c7 d2 d6 3d 35 1d 4a 3e
       -0.26072782 0.13167088 0.10489421 0.19737704
000380 66 bd 6e be e5 51 1d bd 1b 96 ff 3c ca 18 66 3e
       -0.23314437 -0.03840818 0.031199506 0.22470394
000390 84 f1 00 3e b2 77 28 be c1 c3 58 bd 90 a8 6d 3e
       0.12592131 -0.1645191 -0.05292106 0.23208833
0003a0 16 b7 27 3e 59 37 6e be 05 58 71 3e d9 fa a0 3d
       0.16378435 -0.23263301 0.23568733 0.078603454
0003b0 c0 85 28 3d 21 67 66 bb 9f 83 90 bd 11 a2 34 be
       0.04114318 -0.0035156684 -0.07056355 -0.17639948
0003c0 c7 7f 88 be 5d 42 9b bd a8 5a f0 bc 80 fa 25 3c
       -0.26659986 -0.07581017 -0.029340103 0.010130525
0003d0 ec 17 8f bd 33 3f 97 3d 27 26 3f be 1b 49 4b be
       -0.069869846 0.07385101 -0.18666898 -0.19852106
0003e0 b6 a1 f9 bd 09 6d f6 bd 96 80 89 be 9d a6 ff bd
       -0.12189047 -0.120325156 -0.26855916 -0.12482951
0003f0 22 05 16 be 75 e0 01 bd 1d 41 c1 3d e9 d4 56 be
       -0.14650396 -0.0317082 0.094362475 -0.20979656

dense/bias:0 f4 [5]
000000 50 32 83 3c 01 e8 bc bc 47 7c 1a bc 39 b3 8e 3c
       0.016015202 -0.023059847 -0.009429044 0.017419444
000010 aa 9c 9c b9
       -0.00029871362

conv1d/kernel:0 f4 [128, 300, 3]
000000 c0 00 81 bd 79 76 9f 3c d7 fc 6e bc f3 94 92 bd
       -0.06298971 0.019465672 -0.014586649 -0.07157316
000010 46 8f a7 bd ca 56 8b 38 d1 fa 43 bd 33 18 f3 bc
       -0.08181624 6.644202e-05 -0.04784662 -0.029674625
000020 f5 a5 69 bd 9a 46 fe bc 1d 34 7b bc 1d 7f 53 3d
       -0.057043035 -0.031039525 -0.015332249 0.051634897
000030 f9 c8 5e bd ab 40 21 bd 74 9b 09 bd 10 6c b7 bd
       -0.05439088 -0.039368313 -0.033595517 -0.08956158
000040 dc 81 4a 3d 01 5d 13 bd 03 e9 97 3b 20 15 43 3b
       0.04944025 -0.035977367 0.0046359315 0.002976723
000050 59 90 da bc 71 1e 9f 3d bc 69 b9 bc 95 b0 af 3c
       -0.026680158 0.07769478 -0.022633426 0.021446506
000060 36 2f 4c 3d e7 6e fd bc 66 be 45 bd 0b be d6 3c
       0.04984971 -0.030936671 -0.04827728 0.026213666
000070 53 67 13 3c d0 41 82 3d 54 d3 8d 3d 42 02 55 bc
       0.008996802 0.06360209 0.06925073 -0.013001027
000080 73 c9 57 bd c3 c1 00 bd 0f ce 8f 3c 1b ab 50 3d
       -0.05268235 -0.031434786 0.017554311 0.05094443
000090 28 8a d2 3c a1 f3 b6 bb ff 74 e0 bc bf 30 2c 3d
       0.025700644 -0.005583242 -0.027399538 0.042038675
0000a0 08 54 16 bc 01 35 c7 bc eb 66 a4 3c d2 33 eb bc
       -0.009175308 -0.024317266 0.020068606 -0.028711233
0000b0 07 b5 dc ba b5 71 34 bd 41 13 a4 bb 80 14 5d 3c
       -0.0016838618 -0.044053752 -0.005007178 0.013493657
0000c0 75 1e 96 bc 16 89 2e 3d 7c b6 b1 3d a1 84 29 3c
       -0.01832507 0.042611204 0.08677384 0.010346563
0000d0 6a 71 18 bd 0f b9 01 bd 56 0b 86 bd 45 8d 73 3d
       -0.037217535 -0.031670626 -0.06545131 0.059460897
0000e0 68 67 5d bd 33 85 70 3c 94 1e ab 3c 77 0e 8b bc
       -0.054053694 0.014680195 0.020888604 -0.01697467
0000f0 26 2a 5a bd be ab 88 bd 7c 2a 67 3d e3 05 68 bc
       -0.053262852 -0.06673382 0.056437 -0.01416156
000100 2c f6 bb bc 68 8f ce 3c 55 25 8c 3c 24 44 31 3d
       -0.022944532 0.025214866 0.017107645 0.043277875
000110 e9 d8 43 bc e2 5d 40 bd 17 92 a2 bd e6 4e 3c bd
       -0.011953571 -0.046964534 -0.07938021 -0.04597368
000120 3c 95 67 3d 2f a1 09 3d b0 b7 21 bd bd 65 1d bc
       0.056538805 0.033600982 -0.03948182 -0.009606776
000130 9d d8 36 bd f1 f2 a7 bc 49 60 80 bc f0 ce 8d 3d
       -0.044640172 -0.020501586 -0.015670912 0.06924236
000140 0a bb 87 3d 67 93 50 3d 03 34 9a 3d 00 d3 af bc
       0.06627472 0.050921824 0.07529452 -0.021462917
000150 24 60 a3 bd 8a f5 27 3d b5 4c 87 bd 4c 1c 98 3d
       -0.07977322 0.04100565 -0.066064276 0.07427272
000160 27 cd ff bc 4d db ac 3c 0c 95 6e 3d c6 d1 c5 bc
       -0.031225754 0.021100665 0.05824761 -0.02414788
000170 7e d9 7e 3d 19 55 25 3d 87 73 a4 bc a3 7f 36 3d
       0.062219135 0.04036436 -0.020074619 0.044555318
000180 44 cf 16 3d 53 42 ef 3c c0 4a d5 bc 82 40 af bd
       0.036818758 0.02920643 -0.02603662 -0.08557226
000190 6d ba 52 bd 99 c4 da bc 28 b9 9c bc 46 e4 23 bd
       -0.05144732 -0.026705073 -0.019131258 -0.04001262
0001a0 7c 6d 6d 3d 8e ea 1c bc cb bf c6 bc 29 06 c2 3a
       0.05796574 -0.009577407 -0.024261376 0.0014802861
0001b0 c3 99 80 bd 78 61 72 bc 58 9b 32 bd 55 a7 0f bd
       -0.06279328 -0.014793746 -0.04360518 -0.03507169
0001c0 f9 10 de 3b 53 ce 6e 3d b9 81 91 3d c9 63 8d 3c
       0.0067769256 0.058302235 0.07104821 0.017259495
0001d0 0a ba c4 3c b8 43 fc 3c 61 79 bc bc b1 3b 2c 3c
       0.024014492 0.03079401 -0.023007097 0.010512278
0001e0 c9 4f 42 3d 26 a8 a5 bd 17 1f 94 3d e0 ea 39 3c
       0.04743937 -0.080887124 0.072324924 0.0113475025
0001f0 ec a3 0c 3d 77 26 47 bd 5c 82 97 bc 8b 16 b0 bb
       0.034336016 -0.048620667 -0.018494777 -0.005373781
000200 06 cb e6 bc d0 9b 65 bd 13 f5 05 bd 6c 84 81 3b
       -0.028172981 -0.056056798 -0.032704424 0.0039525535
000210 82 8f 32 bd 3f a9 54 3d 44 13 90 3c ca 64 a7 bd
       -0.04359389 0.05191922 0.017587312 -0.08173521
000220 35 69 5f 3d 9e da 6f 3c 2a 74 87 bb 81 93 a7 bb
       0.054543693 0.014639525 -0.004133721 -0.0051140194
000230 80 d7 7c bd de 4a 11 bc b5 2e 1e 3d 94 69 5f 3d
       -0.061728954 -0.008867947 0.038618762 0.054544047
000240 2d cc 8d bd c2 d1 88 3d 5f f3 81 bc 2c e1 8b 3a
       -0.06923709 0.06680633 -0.015863119 0.0010671965
000250 70 ec 9a 3d ab 34 0c 3d 63 5a 92 3d 84 ab 79 3c
       0.07564628 0.034229916 0.07146146 0.015238646
000260 4b 74 80 bd 34 2b df bc 67 bc 4e 3d ab 3e 3d 3d
       -0.06272181 -0.02724228 0.050472643 0.046202343
000270 08 ce 09 bd 23 c7 96 bb 1f cd c1 ba 1b d2 d7 3c
       -0.033643752 -0.0046013757 -0.0014785862 0.026345303
000280 bc 0b 4d bd ca e1 f8 bc 96 6c f6 bc 26 d7 a9 bd
       -0.05006002 -0.030381102 -0.030081075 -0.082929894
000290 46 d8 ab 3c 43 e1 4b bb 76 42 93 3c cc 74 38 3d
       0.02097715 -0.0031109608 0.017976027 0.04503326
0002a0 5c 51 19 bd c3 e6 34 bd 46 3f 17 3a e7 87 c0 3d
       -0.037431106 -0.044165384 0.00057696213 0.09400921
0002b0 9a 84 18 bd 46 ee 6a 3d e3 9e 16 3c 44 79 9c bd
       -0.037235834 0.05735614 0.009193155 -0.07640317
0002c0 63 ae 26 bc 3b 52 84 3c ae 6f 2b 3c c7 0d bf 3c
       -0.010173413 0.016152492 0.010463638 0.023322
0002d0 75 d4 72 bc 08 e3 ae 3b 42 27 a4 b8 ac 1f f5 bc
       -0.0148211615 0.005337123 -7.827442e-05 -0.029922329
0002e0 96 a1 92 bd d6 ee b3 bc 99 5b e7 bc 14 3d 4f bc
       -0.07159726 -0.021964472 -0.02824192 -0.0126488395
0002f0 dc 20 43 bc 67 1a 03 3d 79 4e 40 bd 4f b0 8c 3d
       -0.01190969 0.0320076 -0.046949837 0.06869566
000300 54 ee 2a bd a1 72 b1 bd 07 bb 4f bd 43 47 42 bd
       -0.041731194 -0.08664442 -0.050715473 -0.04743124
000310 d3 21 44 bd e4 01 34 3d 7e b7 63 3d 25 4e 70 bd
       -0.04788382 0.043947116 0.055594914 -0.058668274
000320 6f 48 35 bd e7 00 ad bc 59 f8 67 3d 48 31 37 3d
       -0.04425853 -0.021118594 0.056633327 0.044724733
000330 92 cc 35 bc 0d c0 9e 3d 3d 41 7f 3d d4 89 b8 bd
       -0.011096137 0.077514745 0.062318075 -0.09010664
000340 d9 6a 2b 3d 0f 4c 7f bc 3b f6 47 bd 31 b6 92 bc
       0.041849945 -0.015582099 -0.048818808 -0.017909141
000350 6e 9e 1f 3d b9 39 9a 3d 6e 35 7c bc b9 15 e5 bc
       0.03896945 0.07530541 -0.015393598 -0.02796446
000360 06 da 9f 3c 5f 02 69 3c 80 3f e2 bc 6d fe e2 3c
       0.019513141 0.014221757 -0.02761817 0.02770921
000370 0d f3 29 3d 74 33 bb 3b 45 6f 51 3c a0 39 59 bd
       0.041491557 0.005712921 0.012782876 -0.05303347
000380 71 1b 4c bd ff 9e 8c 3d 2d f0 0d 3d 05 ee 14 bd
       -0.049830858 0.068662636 0.034652878 -0.036359806
000390 e6 eb 02 3d 6b 73 d1 3d 45 a1 a6 bc 3a 9f fb 3c
       0.03196325 0.10227092 -0.020340571 0.030715574
0003a0 05 3a 95 3c 7e d0 fb 3c 76 ab 1a 3d f0 85 a4 bd
       0.018216142 0.030739065 0.037761174 -0.08033359
0003b0 b3 59 03 bd 57 3a 43 3c a7 e3 af bd 02 40 3a bc
       -0.032067966 0.011915765 -0.08588343 -0.0113678
0003c0 8f 8c 82 bd be fe 1f 3d f3 0d 6d bd 01 c1 95 3c
       -0.06374466 0.0390613 -0.05787463 0.018280508
0003d0 14 37 dc 3c 38 2c d3 bc d3 9d 4a bd 6b 1e fa bc
       0.026881732 -0.025777921 -0.04946692 -0.030532083
0003e0 92 93 01 bb aa fe 85 bd 24 29 5e 3d f3 77 80 3c
       -0.0019771797 -0.06542714 0.054238454 0.015682196
0003f0 95 2a 87 3d 4f b1 55 3c 9a 5a 18 bc 8b 1c 0c 3d
       0.06599919 0.013042762 -0.009298945 0.03420691

conv1d/bias:0 f4 [128]
000000 0c ce 4c 3c a6 dd 73 bc e2 1a cf bc be fc 66 bb
       0.012500297 -0.014884388 -0.025281373 -0.003524586
000010 f8 9d c1 3b 98 a9 4e bc 52 7b 8e 3c 52 7a 19 bc
       0.005908724 -0.0126136765 0.017392788 -0.009367542
000020 d8 bd aa 3c 45 35 63 bc 82 8f 62 bc 52 f1 1c 3b
       0.020842478 -0.013867681 -0.01382816 0.002394755
000030 59 13 e1 bc dc a7 c7 bb 31 29 9c bc c6 71 ad bc
       -0.027475046 -0.0060930084 -0.01906261 -0.021172415
000040 7a 25 46 3c 6c 4a bd 3c 29 fe a8 bc 04 3b e5 3c
       0.012093896 0.023106776 -0.020629006 0.027982242
000050 b1 a4 43 3b c8 06 0b bd 3c 3e 2c bc 44 ba a8 3c
       0.0029852802 -0.033942014 -0.010512885 0.02059663
000060 6e a5 02 3c 44 62 fe 3c f4 78 72 bc 77 f8 c4 bc
       0.007974012 0.031052716 -0.014799345 -0.024044259
000070 b5 82 d4 bc 7f ec 19 3c 78 1c 70 3c 15 c7 76 bc
       -0.025941232 0.009394764 0.014655225 -0.015062113
000080 8b 57 43 bc 87 fc 12 bc 01 05 eb bb c4 31 4d bc
       -0.011922727 -0.00897134 -0.0071722274 -0.012524072
000090 60 b8 3f bc c7 62 fe bc 9e 7f 7b 3b 1e 30 db 3c
       -0.011701673 -0.03105296 0.0038375626 0.026756343
0000a0 7c a2 5b 3b c7 5c b0 3c 7b 79 48 3c af 2f f4 bc
       0.0033513596 0.021528615 0.012235994 -0.029807894
0000b0 5e 38 25 bc f7 ed 02 bc 54 45 df bc e9 cf ff bb
       -0.01008424 -0.007991306 -0.027254738 -0.0078067672
0000c0 18 13 44 bc ea 02 ac 3c 64 f9 a9 ba 62 52 81 bc
       -0.011967443 0.020997483 -0.0012968001 -0.015786353
0000d0 f0 78 b5 3c 99 6d a6 bc 39 bf e8 3c 1d de 92 3c
       0.022152394 -0.020315932 0.028411495 0.017928177
0000e0 d0 e2 04 bd 77 06 55 3a 2c ec 21 3b 44 d5 3c 3c
       -0.032442868 0.00081262685 0.002470742 0.011525456
0000f0 f9 0e a0 3b be 53 d7 3c 3b 16 a5 3c de d8 ac 3b
       0.0048845974 0.026285049 0.020152202 0.005274876
000100 df 34 e5 bc 40 18 ff b7 fe 2e fe 3c 34 5a b8 bb
       -0.027979312 -3.0409661e-05 0.031028267 -0.0056259874
000110 99 2a 9f 3c 8f 87 bf 3b 1a ba 91 3a 08 6f 6d 39
       0.019429492 0.0058450173 0.0011118085 0.00022643444
000120 fd 4a ee 3b ad 4e 6a bb 3d 36 86 3c e3 00 db bc
       0.007272123 -0.003575246 0.016383285 -0.026733821
000130 6c 46 66 3c c0 d9 17 3b f9 48 08 3b b1 5b cb bc
       0.014054876 0.002317056 0.0020795448 -0.024823995
000140 10 57 a9 3b ba 93 35 3c 49 8b ae 3a d7 c9 f7 3c
       0.0051678494 0.011082584 0.0013316657 0.030247612
000150 87 de cf bc 74 cc 8d 3c 56 0f ac bb d7 04 7e 3c
       -0.025374664 0.017309405 -0.0052508516 0.015504084
000160 71 b2 29 3c b1 d4 a7 3c 72 4d 97 bc 2e 19 9a bc
       0.010357485 0.020487161 -0.018469546 -0.018810835
000170 9a 3c 34 3c 65 6f 5e 3c 49 ea e8 bc 5c 4a d1 3c
       0.011000777 0.013576363 -0.028432028 0.025548153
000180 c1 79 f9 3c ce 89 ca ba 40 f7 e4 bc 1a 42 b2 bc
       0.030453565 -0.0015452446 -0.02794993 -0.021760035
000190 a6 b9 f6 3a 2d 8c f4 bc f5 2d 10 bb 7e 10 9f 3c
       0.0018823638 -0.029851997 -0.0022000049 0.019417044
0001a0 60 59 31 3c bf 32 f1 3b 8f e6 3f ba af 42 b0 bc
       0.010824531 0.0073607857 -0.00073204277 -0.021516172
0001b0 65 f6 83 3c 93 eb be bb 3a a4 25 bb 16 74 a6 3c
       0.016108701 -0.0058264225 -0.0025274889 0.020319026
0001c0 31 55 29 bb ea 00 42 bc 32 5e ca bb 34 8d 10 ba
       -0.0025838132 -0.011841038 -0.0061757797 -0.0005514205
0001d0 1c a5 c2 3b 2a 22 f8 bc 1f 9f 63 bc 52 1e fc 3c
       0.0059400927 -0.030289728 -0.013892918 0.030776177
0001e0 5e 46 d4 bc 53 ab b9 bb 5e f8 9e 3c 61 fa ce bb
       -0.02591246 -0.0056661754 0.01940554 -0.0063164686
0001f0 37 9f 5d bc 73 b6 80 3c b1 99 49 bc b9 57 80 bc
       -0.013526729 0.015711999 -0.012304709 -0.01566683
