resources/classifier.onnx (onnx, 464469 bytes, 4 tensors)

dense/kernel:0 f4 [128, 4]
0	0x3d7ea91b	0.06217299
1	0xbdc8d1a0	-0.09805608
2	0xbe312982	-0.1730099
3	0x3e491614	0.19637328
4	0x3e2da58b	0.16957681
5	0xbe3ef18f	-0.18646835
6	0xbe414313	-0.18873243
7	0x3ce5c92e	0.028050032
8	0x3d58e6d9	0.05295453
9	0x3ce8dcb5	0.028425554
10	0xbe51f2e1	-0.20502807
11	0x3db6d4a4	0.08927277
12	0x3e768e38	0.2407769
13	0x3e4337ec	0.19064301
14	0xbda4bb40	-0.080435276
15	0xbdc5ecf3	-0.09664335
16	0x3e12b3a1	0.14326335
17	0x3d96a599	0.07355804
18	0xbdec8fb4	-0.11550847
19	0x3e619b13	0.22031812
20	0xbe3a77cb	-0.1820976
21	0x3ca3b1ec	0.0199823
22	0xbe69432d	-0.22779532
23	0x3db4bd05	0.08825115
24	0xbd7911d1	-0.060808007
25	0xbd50c338	-0.050967425
26	0x3e67f6c8	0.22652733
27	0xbdab9558	-0.083780944
28	0xbe70a03b	-0.23498623
29	0xbdc37d09	-0.09545333
30	0x3dc767b0	0.09736574
31	0xbe5389e3	-0.20658068
32	0x3de2dafe	0.11076926
33	0x3d8fb2ea	0.07016547
34	0x3e489e1e	0.19591567
35	0xbd484936	-0.048897944
36	0x3e447b6f	0.19187711
37	0x3d3747a9	0.044746075
38	0x3e436991	0.19083239
39	0x3dabbb1d	0.083852984
40	0x3e3cd04f	0.18438838
41	0xbdc9435e	-0.098273024
42	0x3db55d07	0.08855634
43	0xbd4c1990	-0.049829066
44	0x3e1ad122	0.1511884
45	0x3dc87c57	0.09789341
46	0x3e20d6d0	0.15706944
47	0xbd36c3e9	-0.04462043
48	0xbe3c2156	-0.18372092
49	0xbd795d58	-0.060880035
50	0xbe33dfbf	-0.17565821
51	0xbd57aaa1	-0.05265296
52	0x3da6231c	0.08112165
53	0x3e05e783	0.13076596
54	0xbd3dbe5a	-0.04632411
55	0xbd5abc47	-0.05340221
56	0x3e0f89c2	0.14017394
57	0x3e6da1ee	0.23206303
58	0xbe0e1400	-0.13874817
59	0xbe28e186	-0.1649228
60	0x3de5d84a	0.112228945
61	0x3e36fead	0.17870589
62	0xbd86ea7c	-0.06587693
63	0x3dd05f93	0.10174479
64	0xbe468026	-0.19384822
65	0xbdc32654	-0.09528795
66	0x3e1689c3	0.1470099
67	0x3d6c869c	0.05774556
68	0x3e2c24ef	0.16810964
69	0x3d78ca58	0.060739845
70	0x3df61211	0.12015165
71	0xbe2b2155	-0.16711934
72	0x3e58b9c3	0.21164612
73	0xbd01880e	-0.031623892
74	0x3e0024a8	0.12513983
75	0xbe1061d1	-0.14099814
76	0xbe20f9b9	-0.15720262
77	0x3e238cd1	0.15971686
78	0x3da1e92c	0.07905802
79	0x3e4b25ab	0.19838588
80	0x3ddce9e3	0.10786798
81	0xbe643bd2	-0.22288445
82	0x3dd04f49	0.101713724
83	0x3d76479c	0.060126886
84	0x3e6291e9	0.22125973
85	0xbdf466a0	-0.11933637
86	0x3d3654b5	0.044514377
87	0xbe4c0d58	-0.19926965
88	0xbe4a3792	-0.19747761
89	0xbb8625b8	-0.004093852
90	0xbe22bf05	-0.1589318
91	0x3d9d7a01	0.07689286
92	0x3d4109db	0.04712854
93	0x3da54bd4	0.08071104
94	0x3de93e5f	0.113888495
95	0xba0ac160	-0.00052930973
96	0xbe58090e	-0.21097204
97	0xbde31f92	-0.11090006
98	0x3decfb3b	0.11571356
99	0x3e36cc23	0.1785131
100	0x3df4bcf2	0.11950101
101	0x3d472a3e	0.04862427
102	0xbdd4c637	-0.10389369
103	0xbdca09fb	-0.09865185
104	0xbe150118	-0.14551198
105	0x3d93027d	0.07178209
106	0xbc907b3c	-0.017636888
107	0x3ddc44ce	0.10755311
108	0xbde2c491	-0.11072648
109	0xbdbd161c	-0.09232733
110	0x3dc18c32	0.09450568
111	0x3e4ae7ec	0.19815034
112	0xbd492d04	-0.049115196
113	0x3dbb3c06	0.09142308
114	0xbd95f870	-0.07322776
115	0xbe62b3eb	-0.22138946
116	0x3e24b6f3	0.16085415
117	0xbe3579eb	-0.1772229
118	0x3e12e80a	0.14346328
119	0xbb848a71	-0.004044824
120	0x3e5b7d76	0.21434578
121	0xbe3b0d21	-0.18266727
122	0xbe2c53ec	-0.16828889
123	0x3d92bb28	0.071646035
124	0x3e20ee55	0.15715916
125	0x3ddf2652	0.10895981
126	0xbe351d57	-0.17686974
127	0xbdf50bab	-0.11965116
128	0xbe3d8197	-0.18506466
129	0xbcc2bd8e	-0.023772027
130	0xbe3dade5	-0.18523367
131	0xbe5453e3	-0.20735125
132	0xbe3f24bf	-0.18666361
133	0xbdc7a543	-0.09748318
134	0x3dc65d75	0.09685794
135	0xbe1002d2	-0.14063576
136	0xbe3db059	-0.18524303
137	0xbdd8efd9	-0.10592622
138	0xbe18be2c	-0.14916295
139	0x3e0bafe1	0.13641311
140	0xbe0f7ae3	-0.14011721
141	0x3d88b9bb	0.0667605
142	0x3d9d0c22	0.0766833
143	0xbe363d9c	-0.1779694
144	0x3c316cbe	0.010829149
145	0x3e254de3	0.16142993
146	0x3e7cdaf3	0.24692897
147	0x3de1b4ee	0.11020838
148	0xbdcbf6ac	-0.09959158
149	0x3e01d425	0.12678583
150	0x3dddd8c7	0.108323626
151	0xbc185224	-0.009296928
152	0xbd943428	-0.072365105
153	0x3e5af5ff	0.21382903
154	0xbd4a153d	-0.04933666
155	0xbe6a2b8a	-0.22868171
156	0xbda55e9b	-0.08074685
157	0x3e16c4b4	0.14723474
158	0xbcc8332a	-0.02443846
159	0xbd3cfdd7	-0.046140518
160	0x3c97d169	0.018532472
161	0xbe12fd41	-0.14354421
162	0x3e05182e	0.12997505
163	0x3e5b6f3d	0.21429153
164	0x3d9af1d3	0.075656556
165	0x3d8ca7a9	0.06867916
166	0xbe5648ce	-0.2092621
167	0x3e2f0693	0.17092352
168	0xbe134850	-0.14383054
169	0xbe11765d	-0.14205308
170	0x3e08d1b6	0.13361248
171	0x3df07195	0.11740414
172	0xbd06c021	-0.032898072
173	0x3d9e6897	0.07734793
174	0xbe590bd7	-0.21195923
175	0x3c4530bb	0.012035544
176	0x3e142789	0.14468206
177	0xbd21577e	-0.03939008
178	0xbe5f57e2	-0.21810868
179	0x3db34180	0.087527275
180	0xbe1dc88c	-0.15408534
181	0xbd28aa9c	-0.04117833
182	0x3de1ecca	0.11031492
183	0xbe061850	-0.13095212
184	0xbe44b08f	-0.19207977
185	0x3e48e2e8	0.19617808
186	0xbe543255	-0.20722325
187	0xbd1f847d	-0.03894471
188	0x3e33321a	0.17499581
189	0xbcf7577e	-0.030193087
190	0x3de7c935	0.11317674
191	0xbe516119	-0.20447196
192	0x3e17ba53	0.14817171
193	0xbd4867d8	-0.048927158
194	0xbe086071	-0.1331804
195	0x3e40e573	0.18837528
196	0x3e350791	0.17678668
197	0xbce8c52b	-0.02841433
198	0x3e02da2c	0.12778538
199	0xbe582fb5	-0.21111949
200	0x3dc509f0	0.09621036
201	0xbe42a362	-0.19007638
202	0xbd6ed287	-0.058306243
203	0x3dbc8625	0.092052735
204	0x3e552aed	0.20817156
205	0xbda01691	-0.07816804
206	0x3cb6b291	0.022301944
207	0xbe31d693	-0.1736701
208	0x3e3495fe	0.17635342
209	0xbdb306c1	-0.087415226
210	0xbe75a4b3	-0.23988609
211	0x3e6ba7d0	0.23013234
212	0x3d7e8358	0.062136978
213	0xbc5e4325	-0.013565813
214	0xbdbf17b8	-0.09330696
215	0xbe3adea4	-0.18248993
216	0xbcfe1753	-0.031016981
217	0x3dadf940	0.08494806
218	0x3da8ed93	0.08248439
219	0xbe230ae4	-0.15922123
220	0x3d6be2c0	0.057589293
221	0x3cc7bca7	0.024381949
222	0xbe18d2f8	-0.14924228
223	0x3dcc866a	0.09986575
224	0xbd3bdb41	-0.045863394
225	0x3e457180	0.19281578
226	0x3e719490	0.23591828
227	0x3cad4055	0.02114884
228	0x3cf6bdb9	0.030119764
229	0x3e694e8d	0.22783871
230	0x3d390602	0.045171745
231	0xbe68632e	-0.22694084
232	0xbe449d96	-0.1920074
233	0x3d877a4f	0.066151254
234	0x3e612f23	0.21990637
235	0xbd5611e5	-0.05226316
236	0xb903b9f4	-0.00012562406
237	0x3e2423fb	0.1602935
238	0xbe16386b	-0.14669959
239	0x3d42a1ba	0.047517516
240	0x3e27d623	0.1639028
241	0xbe197a33	-0.14988022
242	0xbdc6e2dc	-0.09711239
243	0xbe5cad38	-0.21550453
244	0xbe2af350	-0.16694379
245	0xbce92bd2	-0.028463278
246	0xbdffc035	-0.124878325
247	0x3e0bed07	0.13664638
248	0x3cc00dfb	0.023444166
249	0xbe405b81	-0.18784906
250	0xbdc608c9	-0.096696444
251	0x3c49a8d4	0.012308318
252	0xbe5045c3	-0.20339112
253	0xbc54b7dd	-0.01298329
254	0x3d89fa97	0.06737249
255	0xbc0c7fef	-0.008575424

dense/bias:0 f4 [4]
0	0x3ca0f2b9	0.01964699
1	0xbc9c80b9	-0.019104348
2	0x3c3096b8	0.010778122
3	0xbbcd0130	-0.006256245

conv1d/kernel:0 f4 [128, 300, 3]
0	0x3c299e46	0.010352677
1	0x3d05c634	0.032659724
2	0x3ce7b072	0.028282378
3	0xbd8d0aae	-0.068868026
4	0x3b4a98d8	0.0030913856
5	0xbd05532b	-0.03255002
6	0x3d154a00	0.036447525
7	0x3d144b4c	0.03620462
8	0x3d60215e	0.05471932
9	0x3db686da	0.0891244
10	0xbce57a76	-0.028012495
11	0xbc4343c8	-0.011918016
12	0x3d399925	0.045312066
13	0x3d13f966	0.036126517
14	0x3cf99073	0.030464387
15	0xbd4c8db0	-0.04993981
16	0xbcb65325	-0.022256443
17	0xbd65c13a	-0.05609248
18	0x3dbdafb7	0.092620306
19	0x3d6cea5f	0.0578407
20	0x3bea591d	0.0071517364
21	0xbca5e1f7	-0.02024935
22	0x3cee0945	0.029057154
23	0xbd1a8715	-0.03772648
24	0xbc16febe	-0.009216009
25	0xbcd16244	-0.025559552
26	0xbd1cdf8b	-0.038299125
27	0xbd9d09ad	-0.07667861
28	0xbbd0c9c2	-0.0063717077
29	0x3d81809e	0.0632336
30	0x3ac90605	0.0015336877
31	0x3b30e5f2	0.0026992527
32	0xbd722d5f	-0.0591253
33	0xbd2a69ec	-0.04160492
34	0xbc8a1741	-0.016856791
35	0x3c1a7c7d	0.009429094
36	0x3d60f9e1	0.054925803
37	0x3a0b04fc	0.0005303172
38	0x3acf135c	0.0015798616
39	0xbda06350	-0.07831442
40	0x3da1a136	0.07892077
41	0xbcba0d29	-0.022711353
42	0xbc867413	-0.01641277
43	0xbb60cdb6	-0.00343023
44	0x3cc5aaa3	0.024129217
45	0xbd151928	-0.036400944
46	0xbced29b9	-0.028950559
47	0xbccb9fe8	-0.024856523
48	0xbd42642a	-0.047458805
49	0x3d63f688	0.055655032
50	0x3d9aaa8c	0.075520605
51	0x3c9fefd5	0.01952354
52	0x3d23a4f5	0.039952237
53	0x3c30218f	0.0107501885
54	0xbd6140ff	-0.054993626
55	0x3cd332e7	0.025781108
56	0xbcda6b8d	-0.026662612
57	0xbbd10fb0	-0.006380044
58	0x3c15aa38	0.009134822
59	0x3d09d0ad	0.033646274
60	0xbcc47e72	-0.023986075
61	0x3d56c923	0.052437913
62	0x3a80c80a	0.0009825241
63	0x3d561b49	0.052272115
64	0xbd853b91	-0.06505502
65	0xbd254950	-0.04035312
66	0x3d58a648	0.052892953
67	0x3cb9d6c2	0.022685412
68	0xbd7a7c76	-0.06115385
69	0x3b13955d	0.0022519447
70	0x3cf54f63	0.029945081
71	0xbda8cf8f	-0.08242714
72	0x3d8dbd28	0.06920844
73	0xbd87ec46	-0.066368625
74	0xbcc94428	-0.024568632
75	0x3d58fce5	0.052975554
76	0x3d00358f	0.031301077
77	0x3d69ab3a	0.05704806
78	0xbc4270a6	-0.011867678
79	0xbbf4a166	-0.0074655293
80	0x3d4243a0	0.047427773
81	0xbd4b5377	-0.049640145
82	0x3db3ef12	0.087858334
83	0x3c7291f0	0.014805302
84	0x3b42f5c8	0.0029748548
85	0xbc50bfe8	-0.0127410665
86	0x3d365a0c	0.04451947
87	0xbd03b7e2	-0.032157786
88	0x3d4adf9d	0.04952966
89	0xbc2b04bf	-0.010438143
90	0xbd5661f3	-0.052339505
91	0xbbf71d37	-0.0075413245
92	0x3c87f9f2	0.016598675
93	0xbd08f9e2	-0.03344143
94	0x3d0ee7c6	0.034889005
95	0xbd00e3d8	-0.03146729
96	0xbd32e941	-0.04367948
97	0xbd1f3f5d	-0.038878787
98	0x3d561ed6	0.0522755
99	0xbc29f9a1	-0.010374458
100	0xbbad21b6	-0.0052835597
101	0x3cb03f33	0.02151451
102	0xbd1df922	-0.03856767
103	0x3db206d9	0.08692712
104	0x3bfe8258	0.007767003
105	0xbba7d05b	-0.0051212735
106	0xbcb0e11d	-0.021591717
107	0xbc1d7137	-0.009609512
108	0xbd5cbd76	-0.05389162
109	0xbd4a896c	-0.049447462
110	0xbd2ef3be	-0.04271292
111	0x3c1e95cd	0.00967927
112	0xbcc3acb7	-0.023886068
113	0x3cb9812a	0.022644598
114	0x3d514862	0.05109442
115	0x3c23569b	0.009969379
116	0xbd22136d	-0.039569307
117	0xbd55886c	-0.052132055
118	0x3bf37154	0.0074292812
119	0xbc12f91d	-0.008970526
120	0x3d048404	0.032352462
121	0xbd96636e	-0.073431835
122	0x3c80e404	0.015733726
123	0xbb4e1571	-0.0031445886
124	0x3b5d49c6	0.0033765896
125	0xbd5525a0	-0.052037835
126	0xbc91ac1b	-0.017782262
127	0xbce5a4fa	-0.028032769
128	0xbd211067	-0.039322283
129	0xbd4099d1	-0.04702169
130	0x3aa3ca9d	0.0012496297
131	0xbd6b0372	-0.057376333
132	0xbddb0a79	-0.10695357
133	0xbd838c7b	-0.06423279
134	0xbb33b093	-0.002741848
135	0x3cd7c7a5	0.026340315
136	0x3d9b1940	0.075731754
137	0xbb25d65d	-0.0025304772
138	0xbc18bdca	-0.009322593
139	0xbd3e611c	-0.04647933
140	0x3d1f6bc7	0.038921144
141	0xbc3b73a4	-0.011441145
142	0x3caef907	0.02135898
143	0x3d148788	0.036262065
144	0xba824f44	-0.0009941836
145	0xbd48460d	-0.04889493
146	0xbd3dc61c	-0.04633151
147	0xbafb5fb9	-0.0019178308
148	0xb95bff9e	-0.00020980692
149	0xbca0b046	-0.019615304
150	0x3cff337d	0.031152481
151	0x3d9caeca	0.07650526
152	0x3c230369	0.0099495435
153	0x3c86b6c6	0.016444575
154	0x3da8f315	0.08249489
155	0x3d42b681	0.04753733
156	0xbd11d6b0	-0.035605133
157	0xbc0f31cb	-0.008739899
158	0x3c54d451	0.012990073
159	0x3c2da08e	0.010597361
160	0xbc91c778	-0.01779531
161	0xbb7c1024	-0.003846177
162	0x3d1a93ff	0.037738796
163	0xbdaa17eb	-0.08305343
164	0x3b5bb631	0.0033525343
165	0xbcc0d578	-0.02353929
166	0x3d2e90fd	0.04261874
167	0xbd7e4c5f	-0.062084552
168	0x3d589450	0.052875817
169	0x3cd3a016	0.02583317
170	0xbbfdf520	-0.0077501684
171	0xbd36b7dc	-0.044608936
172	0x3db88102	0.09008981
173	0xbd399614	-0.04530914
174	0xbd446829	-0.047950897
175	0xbd079ce2	-0.0331086
176	0xbcc92022	-0.024551455
177	0x3d1b82cd	0.03796654
178	0x3d87184e	0.065964326
179	0xbd1bd379	-0.038043473
180	0x3c389be9	0.011267641
181	0x3d44c6bc	0.04804109
182	0xbd32f0ff	-0.043686863
183	0xbd484c6a	-0.048901
184	0xbc6dd7f5	-0.01451682
185	0x3d5b963b	0.053610068
186	0x3d86a671	0.06574715
187	0xbcac817d	-0.021057839
188	0xbce91b99	-0.028455542
189	0xbc64b7f1	-0.013959871
190	0xbda85ad4	-0.08220449
191	0x3d8115f8	0.06303018
192	0x3d29e44c	0.041477486
193	0x3d21a7bf	0.039466616
194	0x3d44cde5	0.04804792
195	0xbd73810b	-0.059449237
196	0x3cbefb72	0.023313258
197	0x3ccf9865	0.025341222
198	0x3cb78d8b	0.02240636
199	0x3cb1dff2	0.02171323
200	0x3d63e09e	0.055634134
201	0x3d7ce0b7	0.061737742
202	0x3d05ae2b	0.032636803
203	0xbd3c3c06	-0.04595568
204	0x3cc91bbf	0.024549363
205	0x3ce9eaf7	0.028554423
206	0xbd51030f	-0.051028308
207	0x3cc91f39	0.024551021
208	0xbd97c6e1	-0.0741098
209	0x3cb23692	0.021754537
210	0xbcebd5a9	-0.028788405
211	0xbd2ed670	-0.042684972
212	0xbd57248d	-0.052525092
213	0x3da90e5d	0.08254693
214	0x3d9f502a	0.07778962
215	0xbd1e7d12	-0.038693495
216	0x3c8199b4	0.015820362
217	0xbd54432d	-0.051821876
218	0x3d675eeb	0.056487005
219	0xbcb3c8f4	-0.021946408
220	0xbd4e35f3	-0.05034442
221	0x3d11a896	0.035561167
222	0xbca1d1c4	-0.019753344
223	0xbccf8a90	-0.025334626
224	0x3d70ef3c	0.0588219
225	0x3c9531b0	0.01821217
226	0x3b2aa8a6	0.0026040464
227	0xbbd766e2	-0.006573544
228	0x3daaebb1	0.08345736
229	0xbca213f7	-0.01978491
230	0xbd0574be	-0.032582037
231	0x3cc741b6	0.024323326
232	0x3c620b83	0.01379669
233	0x3c8930cd	0.016746903
234	0x3d94d3fe	0.07266997
235	0x3d74a288	0.059725314
236	0xbcc6d3e6	-0.024270963
237	0xbd23eb14	-0.04001911
238	0x3c8eca0c	0.017430328
239	0xbd49ec04	-0.049297348
240	0x3d1674be	0.036732428
241	0x3c9ba9f3	0.019001937
242	0x3d028a69	0.03187028
243	0xbd5cf571	-0.05394501
244	0xbcd6c5b3	-0.026217317
245	0x3d646ea8	0.055769593
246	0x3d08a0a8	0.03335634
247	0x3c587888	0.013212331
248	0x3bcc9bbf	0.0062441523
249	0xbc9a3d51	-0.018828066
250	0xbcd7f56b	-0.026362142
251	0xbd835670	-0.06412971
252	0xbc82adc9	-0.015952008
253	0x3da0dc85	0.07854561
254	0xbcd6910f	-0.026192216
255	0xbb9fe837	-0.004879977

conv1d/bias:0 f4 [128]
0	0xba940be0	-0.0011295043
1	0x3c5dbc8c	0.013533723
2	0xbc28d687	-0.010305054
3	0xbb461ebb	-0.003023072
4	0xbc3a1674	-0.011357892
5	0xbcd9fc8c	-0.026609682
6	0x3c4163f0	0.011803612
7	0xbaffb574	-0.0019509033
8	0x3c8b61be	0.01701438
9	0x3cc9e70d	0.024646306
10	0x3cc9edf6	0.024649601
11	0x3c80bf0f	0.015716104
12	0xbd052d13	-0.03251369
13	0xbc1ffee1	-0.009765358
14	0xbc0b8b80	-0.008517146
15	0xbc85633b	-0.016282668
16	0xbabf6897	-0.0014603314
17	0x3c81d7c9	0.015849965
18	0x3ccfb3dc	0.025354318
19	0xbcc6124b	-0.024178645
20	0x3ca4042d	0.020021522
21	0x3cc9081f	0.024540005
22	0xbce10ad6	-0.027470987
23	0xbab50286	-0.0013809956
24	0xbb3ef4e9	-0.0029137677
25	0x38afdf7c	8.3862775e-05
26	0xbcdf5034	-0.027259924
27	0xba4522c8	-0.00075201364
28	0xbc2c55e2	-0.010518523
29	0x3cd1b2bd	0.025597924
30	0x3c655874	0.01399814
31	0xbb21cf12	-0.0024690074
32	0xbc99c5cc	-0.018771075
33	0xbb3e2fa7	-0.0029020102
34	0xbc85fff0	-0.016357392
35	0xbc160a16	-0.009157678
36	0xbc5d4207	-0.013504512
37	0xbc900b76	-0.01758359
38	0xbc61ff07	-0.013793713
39	0xbcb7618f	-0.022385387
40	0x3c325005	0.010883336
41	0xbc74c3e3	-0.014939281
42	0x3b7e44c2	0.0038798307
43	0xbca8f0e5	-0.02062268
44	0x39da3143	0.00041616903
45	0xbb9c68da	-0.0047732415
46	0xbcc5bb83	-0.024137264
47	0x3cc7f45a	0.024408508
48	0x3b0de8b9	0.0021653606
49	0x3cbb395a	0.022854496
50	0x3c73c013	0.014877337
51	0x3cc54496	0.024080556
52	0x3adab8a4	0.0016687107
53	0x3bb5ae48	0.0055444576
54	0xbbb364bf	-0.0054746564
55	0xbc61e3a0	-0.01378718
56	0xbc4fe41a	-0.012688661
57	0xbc13992a	-0.009008685
58	0xbc07e76b	-0.00829492
59	0xbcb37f92	-0.021911416
60	0x3cb51e07	0.022109045
61	0xbcb3c1e2	-0.021943036
62	0x3c789bb6	0.015173843
63	0xbc9be6c1	-0.01903093
64	0xba8dbec2	-0.0010814297
65	0xbc3ce3a8	-0.011528887
66	0x3bf31900	0.0074187517
67	0xbc6421a7	-0.013924039
68	0xbcd8c66a	-0.026461799
69	0x3cb2d363	0.021829313
70	0x3a90dde3	0.0011052456
71	0xbb32e025	-0.0027294245
72	0xba9a08c4	-0.001175188
73	0xbca364a3	-0.019945448
74	0x3c3975e1	0.011319608
75	0x3cbda1fd	0.023148531
76	0xbcda1b1e	-0.026624259
77	0x3c583c61	0.013197989
78	0x3c75b6cc	0.014997195
79	0xbc9c5639	-0.019084083
80	0xbcd3440a	-0.02578928
81	0xbc5c1267	-0.013432122
82	0xbcb7dd1f	-0.022444306
83	0xbab7fbcd	-0.0014036834
84	0xbcda92cd	-0.026681328
85	0x3caaf0b8	0.020866737
86	0xbc2ca166	-0.010536527
87	0x3ccb0f24	0.024787493
88	0xbc84b329	-0.016198711
89	0xbc98f53b	-0.018671622
90	0x3c76d8c2	0.0150663275
91	0xbccfb449	-0.025354521
92	0x3c00014e	0.007812811
93	0x3cba3403	0.02272988
94	0xbb89c176	-0.0042039705
95	0xbcef965c	-0.029246502
96	0xbc802bf7	-0.015645964
97	0xbc356e83	-0.011073711
98	0x3c1760f7	0.009239427
99	0x3c993588	0.018702284
100	0x3b90ef68	0.0044230707
101	0xbc17201b	-0.009223963
102	0x3c8bab65	0.0170495
103	0xbce1be2c	-0.027556501
104	0x3c6aa6df	0.014322012
105	0x3c52ee1b	0.012874152
106	0x3ca7faf6	0.02050541
107	0x3be14182	0.006874264
108	0x3bc350c0	0.005960554
109	0x3c0c9453	0.008580285
110	0xbc05d45f	-0.008168309
111	0x3c3d23c0	0.011544168
112	0x3b856a07	0.0040714773
113	0x3c9b3129	0.01894434
114	0xbcb9ee26	-0.022696566
115	0x3cdbb9eb	0.026822051
116	0x3cd8a391	0.026445182
117	0xbca885d2	-0.020571623
118	0xbbc39076	-0.005968149
119	0x3c0d3b1c	0.00862005
120	0x3cd49f9c	0.025955014
121	0xbc146835	-0.009058048
122	0xbccd5fa1	-0.025070013
123	0x3c02ae7f	0.007976173
124	0xbcb84cac	-0.022497497
125	0xbc9fc88e	-0.019504812
126	0xbc66ed89	-0.014094719
127	0xbccf157c	-0.0252788
